Model 1: cnn_digit01.keras

x_train shape: (60000, 28, 28, 1)
60000 train samples
10000 test samples
Model: "sequential"
+--------------------------------------------------------------------------+
| Layer (type)                    | Output Shape           |       Param # |
|---------------------------------+------------------------+---------------|
| conv2d (Conv2D)                 | (None, 26, 26, 64)     |           640 |
|---------------------------------+------------------------+---------------|
| max_pooling2d (MaxPooling2D)    | (None, 13, 13, 64)     |             0 |
|---------------------------------+------------------------+---------------|
| conv2d_1 (Conv2D)               | (None, 11, 11, 128)    |        73,856 |
|---------------------------------+------------------------+---------------|
| max_pooling2d_1 (MaxPooling2D)  | (None, 5, 5, 128)      |             0 |
|---------------------------------+------------------------+---------------|
| flatten (Flatten)               | (None, 3200)           |             0 |
|---------------------------------+------------------------+---------------|
| dense (Dense)                   | (None, 128)            |       409,728 |
|---------------------------------+------------------------+---------------|
| dropout (Dropout)               | (None, 128)            |             0 |
|---------------------------------+------------------------+---------------|
| dense_1 (Dense)                 | (None, 10)             |         1,290 |
+--------------------------------------------------------------------------+
 Total params: 485,514 (1.85 MB)
 Trainable params: 485,514 (1.85 MB)
 Non-trainable params: 0 (0.00 B)
Epoch 1/15
422/422 - 13s - 30ms/step - accuracy: 0.9141 - loss: 0.2770 - val_accuracy: 0.9842 - val_loss: 0.0522 - learning_rate: 1.0000e-03
Epoch 2/15
422/422 - 14s - 33ms/step - accuracy: 0.9742 - loss: 0.0884 - val_accuracy: 0.9885 - val_loss: 0.0398 - learning_rate: 1.0000e-03
…
