x_train shape: (60000, 28, 28, 1)
60000 train samples
10000 test samples
Model 1: cnn_digit01.keras
Model: "sequential"
+--------------------------------------------------------------------------+
| Layer (type)                    | Output Shape           |       Param # |
|---------------------------------+------------------------+---------------|
| conv2d (Conv2D)                 | (None, 26, 26, 64)     |           640 |
|---------------------------------+------------------------+---------------|
| max_pooling2d (MaxPooling2D)    | (None, 13, 13, 64)     |             0 |
|---------------------------------+------------------------+---------------|
| conv2d_1 (Conv2D)               | (None, 11, 11, 128)    |        73,856 |
|---------------------------------+------------------------+---------------|
| max_pooling2d_1 (MaxPooling2D)  | (None, 5, 5, 128)      |             0 |
|---------------------------------+------------------------+---------------|
| flatten (Flatten)               | (None, 3200)           |             0 |
|---------------------------------+------------------------+---------------|
| dense (Dense)                   | (None, 64)             |       204,864 |
|---------------------------------+------------------------+---------------|
| dropout (Dropout)               | (None, 64)             |             0 |
|---------------------------------+------------------------+---------------|
| dense_1 (Dense)                 | (None, 10)             |           650 |
+--------------------------------------------------------------------------+
 Total params: 840,032 (3.20 MB)
 Trainable params: 280,010 (1.07 MB)
 Non-trainable params: 0 (0.00 B)
 Optimizer params: 560,022 (2.14 MB)
