x_train shape: (60000, 28, 28, 1)
60000 train samples
10000 test samples
Model 2: cnn_digit03.keras
Model: "sequential_1"
+--------------------------------------------------------------------------+
| Layer (type)                    | Output Shape           |       Param # |
|---------------------------------+------------------------+---------------|
| conv2d_2 (Conv2D)               | (None, 26, 26, 64)     |           640 |
|---------------------------------+------------------------+---------------|
| conv2d_3 (Conv2D)               | (None, 24, 24, 64)     |        36,928 |
|---------------------------------+------------------------+---------------|
| max_pooling2d_2 (MaxPooling2D)  | (None, 12, 12, 64)     |             0 |
|---------------------------------+------------------------+---------------|
| conv2d_4 (Conv2D)               | (None, 10, 10, 128)    |        73,856 |
|---------------------------------+------------------------+---------------|
| conv2d_5 (Conv2D)               | (None, 8, 8, 128)      |       147,584 |
|---------------------------------+------------------------+---------------|
| global_average_pooling2d        | (None, 128)            |             0 |
| (GlobalAveragePooling2D)        |                        |               |
|---------------------------------+------------------------+---------------|
| flatten_1 (Flatten)             | (None, 128)            |             0 |
|---------------------------------+------------------------+---------------|
| dense_2 (Dense)                 | (None, 128)            |        16,512 |
|---------------------------------+------------------------+---------------|
| dropout_1 (Dropout)             | (None, 128)            |             0 |
|---------------------------------+------------------------+---------------|
| dense_3 (Dense)                 | (None, 10)             |         1,290 |
+--------------------------------------------------------------------------+
 Total params: 830,432 (3.17 MB)
 Trainable params: 276,810 (1.06 MB)
 Non-trainable params: 0 (0.00 B)
 Optimizer params: 553,622 (2.11 MB)

