Model 2: cnn_digit02.keras

x_train shape: (60000, 28, 28, 1)
60000 train samples
10000 test samples
Model: "sequential"
+--------------------------------------------------------------------------+
| Layer (type)                    | Output Shape           |       Param # |
|---------------------------------+------------------------+---------------|
| conv2d (Conv2D)                 | (None, 26, 26, 64)     |           640 |
|---------------------------------+------------------------+---------------|
| conv2d_1 (Conv2D)               | (None, 24, 24, 64)     |        36,928 |
|---------------------------------+------------------------+---------------|
| max_pooling2d (MaxPooling2D)    | (None, 12, 12, 64)     |             0 |
|---------------------------------+------------------------+---------------|
| conv2d_2 (Conv2D)               | (None, 10, 10, 128)    |        73,856 |
|---------------------------------+------------------------+---------------|
| conv2d_3 (Conv2D)               | (None, 8, 8, 128)      |       147,584 |
|---------------------------------+------------------------+---------------|
| global_average_pooling2d        | (None, 128)            |             0 |
| (GlobalAveragePooling2D)        |                        |               |
|---------------------------------+------------------------+---------------|
| flatten (Flatten)               | (None, 128)            |             0 |
|---------------------------------+------------------------+---------------|
| dense (Dense)                   | (None, 128)            |        16,512 |
|---------------------------------+------------------------+---------------|
| dropout (Dropout)               | (None, 128)            |             0 |
|---------------------------------+------------------------+---------------|
| dense_1 (Dense)                 | (None, 10)             |         1,290 |
+--------------------------------------------------------------------------+
 Total params: 276,810 (1.06 MB)
 Trainable params: 276,810 (1.06 MB)
 Non-trainable params: 0 (0.00 B)
Epoch 1/15
Epoch 1: val_loss improved from inf to 0.12456, saving model to best_cnn_digit022.keras
422/422 - 37s - 88ms/step - accuracy: 0.7410 - loss: 0.7593 - val_accuracy: 0.9653 - val_loss: 0.1246 - learning_rate: 1.0000e-03
…
